…
(('बुद्धि', 'भवति'), 'प्रबोधनः', 'प्रबोधनं')
35
(('<s>', 'मम'), '<s>', 'श्रूयतां')
36
(('अस्ति', 'जनपदे'), 'दाक्षिणात्ये', 'दक्षिणात्ये')
37
(('नाम', '।'), 'राक्षसः', 'नगरम्')
38
(('<s>', 'अधुना'), '<s>', 'किम्')
39
(('<s>', 'कथामुखम्'), 'पञ्चतन्त्रम्', 'इति')
40
(('इति', '।'), 'कथामुखम्', 'बभूवुः')
41
(('निराकुलस्', '।'), 'तिष्ठ', 'तिष्ठति')
42
(('तत्र', '।'), 'गम्यते', 'सम्पदः')
_________________________________________________________________
Layer (type)                 Output Shape              Param #   
=================================================================
lstm_1 (LSTM)                (None, 64)                32512     
_________________________________________________________________
1 (Dense)                    (None, 8)                 520       
_________________________________________________________________
repeat_vector_1 (RepeatVecto (None, 10, 8)             0         
_________________________________________________________________
lstm_2 (LSTM)                (None, 10, 64)            18688     
_________________________________________________________________
batch_normalization_1 (Batch (None, 10, 64)            256       
_________________________________________________________________
time_distributed_1 (TimeDist (None, 10, 62)            4030      
=================================================================
Total params: 56,006
Trainable params: 55,878
Non-trainable params: 128
_________________________________________________________________
Epoch 1/10
 - 3s - loss: 4.1301 - acc: 0.0116
Epoch 2/10
 - 0s - loss: 4.1096 - acc: 0.0209
Epoch 3/10
 - 0s - loss: 4.0883 - acc: 0.0349
Epoch 4/10
 - 0s - loss: 4.0675 - acc: 0.2279
Epoch 5/10
…
